output/E135_0.6466.pth (torch, 277683 bytes, 102 tensors)

base.0.weight f4 [8, 1, 3, 3]
00000000: 9c73 1d3e 3c40 2e3d 9d2f 4bbc 510f 66be
00000010: 959b 77bd ad98 d5bd 036c 92bf f325 b6bf
00000020: c70f 113c f024 173d c7ee 5a3c fb78 7bbf
00000030: 9cc8 143f 2b7a 7c3d 779f 8a3d f897 443d
00000040: 975d df3d 8fbc f73c a98d 31bd d788 66bd
00000050: 6269 acbd f7d7 953f 8405 f1bd 6f98 6ebd
00000060: fe03 e3bd e8e5 01bf b3b2 72bd fc30 24be
00000070: 34c1 a7bd 45de 69bd 4551 e33f af35 1cbe
00000080: 1d0f 46bd 46e8 57be 2478 c7bd 7ae9 83bc
00000090: 561b 923d 6cf8 4d3d ec98 f03c 2e8b 8c3d
000000a0: 8b4c 813d 5a9b 223d 6831 da3d 86ff e3bf
000000b0: 01f0 aa3d 9225 6dbc 564d 6abf 856e 7b3c
000000c0: caa4 c2bc 4078 cabb 8f0a 34bd 37ea 243c
000000d0: 1463 1a3f c92c b43e ac4d b23d 390c 623e
000000e0: bad4 f43e 4396 383b 2e11 f83b fae3 90bf
000000f0: 656c 16be 0f84 453d 283d 173e 8856 1ebd
00000100: 7e42 63bd 12ac 01be be6a 74bd bf1e 98bd
00000110: 2f07 0fbe a3ad ddbd 5153 79be e455 b03f
0.15376133 0.042541727 -0.012401489 -0.2246678 -0.06045111 -0.10429511 -1.1439213 -1.4230331
0.008853859 0.03690046 0.013362593 -0.98231477 0.58118606 0.061639946 0.06768697 0.04799649
0.10906523 0.030241279 -0.04334799 -0.056282844 -0.08418538 1.1706532 -0.1176863 -0.05825084
-0.11084746 -0.50741434 -0.059252452 -0.16034311 -0.081911474 -0.05709674 1.7759176 -0.15254854
-0.048354257 -0.21084699 -0.09739712 -0.016102541 0.0713412 0.05028574 0.029369794 0.06862484
0.063134275 0.039698936 0.10653955 -1.7812355 0.08346558 -0.0144742895 -0.91524255 0.015346174
-0.023760218 -0.0061788857 -0.043955382 0.010065607 0.6030743 0.35190418 0.08706221 0.22074975
0.47818547 0.0028165735 0.0075704074 -1.1319573 -0.14689787 0.048221644 0.14769423 -0.03865674
-0.055483334 -0.12663296 -0.05967211 -0.07427739 -0.13967584 -0.10824134 -0.24348189 1.3776212

base.0.bias f4 [8]
00000000: 9942 c13d ecff babe 0c8e 15bf fdbf 153e
00000010: 12b9 4fbe f257 32be 8d4d 82bd 7ced 603c
0.094365306 -0.36523378 -0.5841987 0.14624019 -0.20285442 -0.17416361 -0.06362448 0.013728496

base.1.weight f4 [8]
00000000: 4049 ee3e bed9 9a3e 8532 053f ee30 583f
00000010: 248a a73f da4a 873e 1fcb 4c3e 1f7c 1c3f
0.4654026 0.3024425 0.5203021 0.8444966 1.3089032 0.26424295 0.1999936 0.61126894

base.1.bias f4 [8]
00000000: 9d35 dabe 5954 053e cc30 b5be 923c 823f
00000010: 6d15 debf 9da0 b83d 31b2 8a3d d475 2abf
-0.4261903 0.13020457 -0.35388792 1.0174735 -1.7350289 0.090150096 0.067722686 -0.6658604

base.1.running_mean f4 [8]
00000000: c6ae 9cbf 56b0 c3be 2a2c 05bf 9f43 1a3f
00000010: cd15 4ebf 2181 46be c238 44be 6ce2 853e
-1.2240837 -0.3822047 -0.52020514 0.6025943 -0.80502015 -0.19385196 -0.19162276 0.2614931

base.1.running_var f4 [8]
00000000: 9a93 0b3f 3b6b 6a3d 0259 793d 41fa 223e
00000010: fd71 493e c0d8 653d e3cb 653d 4943 b33d
0.545221 0.05723117 0.0608759 0.15915777 0.1967239 0.056114912 0.056102645 0.08753068

base.3.weight f4 [8, 8, 3, 3]
00000000: fb79 9b3e 03be d3bc 3d83 c6be dcc5 63bd
00000010: b7ab e7bd 731a 3dbd 7e29 dfbc 3324 633d
00000020: 3606 5bbc 67f7 7bbd c7ab bfbd d6e5 8ebb
00000030: db33 cb3c df16 d8be 92a2 97bd e118 dabd
00000040: d876 a7be ac31 b23c 7e1b 983d d418 8bbd
00000050: d0bf 8fbe 229d 3bbe 6dd2 2cbe 36c1 0fbf
00000060: ec6c 26be 46b1 e9be 041c fdbd e728 efba
00000070: 115a 543d 1157 f03d 95e6 f33d 948e 98bf
00000080: 6986 f73e b703 8b3d b07f 193e 812b 473d
00000090: 028f 2cc0 1bcc 6e3f 10f9 d83e c4d0 243f
000000a0: 9c89 a23e a08e 703e 47c6 593d fbda e23d
000000b0: 06c2 243d c624 c53d 8a0f 6d3d 21f2 cc3d
000000c0: e2db d43e 4443 d73d 1106 ce3e 2302 a03d
000000d0: 4cd0 9dbd 4e34 1c3c 0ab5 223e a653 703e
000000e0: 4846 03bd ae29 28be 1326 1ebe 9ae5 07bd
000000f0: 1590 51be aa17 51be acfb 0f3e 6a66 4cbf
00000100: 6829 14be ae5f de3d 19ff fcbc 87e9 afbd
00000110: 062f 39bd 5bb7 623d c2d6 2dbc 7cd3 76bd
00000120: 8bfc a73e 5b6f d13e bef1 973d f171 183e
00000130: 56c8 5e3b d51e 113d 528c 3dbe 2ab0 e53c
00000140: 1ece 17bb 7172 67be 9dc5 c5be de5e 9bbe
00000150: e775 753f bd13 d03e 3bf5 4dbe d8d8 3a3f
00000160: 2712 cf3e 18cb d1be b7ac dc3c f582 1d3e
00000170: 99c2 3b3f b8fa a5bb f369 803e 782a 563f
00000180: fda3 28bf a63a e2bc f895 193f 4aa5 073c
00000190: ab19 acbc dcf7 1ebe ec8a a9bd ab15 81be
000001a0: 3666 e6be 5516 053e 55b9 00be 055a ebbe
000001b0: 08a2 d5bd 50a2 8cbe 55e0 943e 9c91 8e3e
000001c0: 7e5b c9bc 440e c83e e955 063f ded7 113e
000001d0: dba9 f53d ee69 df3e 5a2c 643e 6023 bdbd
000001e0: 0398 c83e 8b0e 733e 8844 7fbe e935 263e
000001f0: 4526 5c3e 78f6 753e effe 673f 81c7 a23e
00000200: cd3f ebbb 8ba1 993d 70ed c13e 5056 e33e
00000210: ba36 6dbf 1ffd abbd fdee afbe 701c 613f
00000220: 01da d33e 6ea2 633e c0d6 3a3e 355b 0f3d
00000230: 9ece 0f3d ab25 ccbe ab55 5abe e9e0 eebb
00000240: b3aa ae3e 353e eebd 75c4 d4be f6d2 a5bd
00000250: e243 c93e 9f54 1f3f 9a26 94bb bc27 b73e
00000260: 71bf 8f3e 48ca 273e c061 2e3e 30ee b53d
00000270: 3c0d 76bf 04bf c13d 9cae 38bd 8337 84bf
00000280: d67b bc3e 865d 633e 4640 033e 8c9b fbbd
00000290: 55aa c8be f7fa 733e f672 673e 198f a4be
000002a0: 4432 143e 4c1b e73d 1c08 c93e 954a 73bd
000002b0: 43e2 4f3e 6782 413e 6cee cb3d ccbb 603d
000002c0: 95d7 82be de7b 093d bb07 2cbe d270 a0bd
000002d0: 400c 2b3e 47b8 96bf ae92 b4be c978 dbbe
000002e0: 4c08 02be bac8 d8bc d761 95be 01a3 56be
000002f0: c8de 88be 6395 20bd 1e6b b6be 96b4 483d
00000300: eca8 ee3e ff3e 9bbf e2d4 33be 205e 12be
00000310: 91ba bbbf fe43 1fbe 00ea b7be 369a 933e
00000320: d4f9 333e 8bf6 e1bf acb9 0e3f bbe0 ac3b
00000330: a99c 113e a78e ec3e a2ef b8bc 6b3c febe
00000340: 0f06 a63c 8cfb 6dba b0d6 413f de7d bb3e
00000350: bcf9 e9bd a070 ee3e 0693 653e cc08 1fbe
00000360: eed3 193e 734a 3cbd 71f3 37be 0cb0 53bd
00000370: 67a2 233d 5dc5 013e f78b 1c3d b8e0 823e
00000380: c745 253e f332 55bd 73b7 203e 35fb 453d
00000390: 409a e4bd b6c4 d03d 7ebd 673e 75de 94bd
000003a0: defe 9bbc d529 f9bf 1ef8 ccbc 5eee 48be
000003b0: a15a 333c e838 d9bd af7a 3abf ac0c 5a3c
000003c0: a210 b9be 2635 bebe 7b69 1dbe 7585 863b
000003d0: fbb4 c93d 6eb6 01be 79e2 993d d494 fb3e
000003e0: 330b e0bd 97df 3f3e eb40 a73e 0605 8bbf
000003f0: b565 c73e 14c2 2f3d d720 b83d 480c ff3e
0.303665 -0.02584744 -0.38772002 -0.055608615 -0.11312049 -0.046167802 -0.027241465 0.055454444
-0.01336818 -0.061515238 -0.09358936 -0.0043608947 0.024805 -0.4220495 -0.07404055 -0.106492765
-0.32707858 0.021752201 0.07427119 -0.06791845 -0.2807603 -0.1832166 -0.16877146 -0.5615419
-0.16252488 -0.4564306 -0.12358859 -0.0018246443 0.051843707 0.117353566 0.119092144 -1.1918511
0.48344734 0.06787818 0.14990115 0.048625473 -2.6962285 0.9328019 0.4237752 0.6438105
0.31745613 0.23491907 0.053167608 0.110769235 0.040224098 0.096261546 0.057876147 0.1000712
0.41574007 0.10510877 0.40239003 0.078129075 -0.07705745 0.009533955 0.15889373 0.2346941
-0.032049447 -0.1642215 -0.15444212 -0.03317795 -0.20465119 -0.20419183 0.14060849 -0.7984377
-0.1446892 0.10858093 -0.030883359 -0.08589464 -0.04521086 0.055350643 -0.010610284 -0.06026028
0.32809862 0.4090527 0.074191555 0.14887215 0.0033993921 0.035429794 -0.18510559 0.028038103
-0.0023163627 -0.2260225 -0.3862733 -0.30345815 0.9588303 0.4064006 -0.20113079 0.7298713
0.40443537 -0.4097526 0.026937826 0.15381987 0.7334381 -0.0050652884 0.25080833 0.8365855
-0.65875226 -0.027615856 0.5999446 0.008279154 -0.021008333 -0.15524238 -0.0827845 -0.25211844
-0.44999856 0.129968 -0.12570699 -0.45967117 -0.10431296 -0.27467585 0.29077402 0.27845466
-0.02457976 0.39073384 0.5247484 0.14242503 0.11995288 0.43635505 0.22282544 -0.09235263
0.39178476 0.23736016 -0.24928486 0.16231503 0.21498974 0.24019802 0.9062337 0.31792834
-0.0071792365 0.07501515 0.37876463 0.4440179 -0.9266163 -0.083978884 -0.3436202 0.8793402
0.4137726 0.22229931 0.18245983 0.03499909 0.035109155 -0.39872488 -0.21321742 -0.007289995
0.34114608 -0.11632959 -0.41556135 -0.08096878 0.39309603 0.62238497 -0.004521203 0.35772502
0.28075746 0.16385758 0.17029476 0.08883321 -0.96113944 0.094602615 -0.045088395 -1.0329441
0.3681323 0.22203645 0.12817487 -0.122855276 -0.39192453 0.23826204 0.22602448 -0.32140425
0.144723 0.11284503 0.39264 -0.0593973 0.20301156 0.18897401 0.09957585 0.054866597
-0.255551 0.033565395 -0.16799824 -0.07834019 0.16703892 -1.1774987 -0.35268158 -0.4286559
-0.12698478 -0.026462901 -0.29176208 -0.20960619 -0.2673247 -0.039204966 -0.356286 0.049000345
0.46613252 -1.21286 -0.17561677 -0.14293718 -1.466631 -0.1555328 -0.35920715 0.2882859
0.1757577 -1.7653364 0.5575206 0.0052758134 0.14219917 0.46202585 -0.022575203 -0.4965547
0.02026656 -0.0009078316 0.7571821 0.36619467 -0.11424586 0.465703 0.22419366 -0.155307
0.15022251 -0.045969438 -0.1796396 -0.051681563 0.0399498 0.12672944 0.03821942 0.25562072
0.16139899 -0.052050542 0.1569498 0.048335273 -0.11162233 0.1019377 0.2263088 -0.07268993
-0.019042429 -1.9465891 -0.025020655 -0.1962218 0.010946901 -0.10606557 -0.7284345 0.013308685
-0.36145502 -0.37149924 -0.15372269 0.004105265 0.098489724 -0.12667248 0.07513899 0.49136984
-0.10939636 0.18737637 0.32666716 -1.0860908 0.38944784 0.042909697 0.08990639 0.49814057

base.3.bias f4 [8]
00000000: f938 13bf b1ce c5bd 29c0 5c3e 854a 27bf
00000010: 02b5 ae3d 2b1c fdbd cbe7 523e 8c89 a7be
-0.5750881 -0.09658564 0.21557678 -0.6534808 0.08530618 -0.12358888 0.20596235 -0.32722127

base.4.weight f4 [8]
00000000: 8dcd a43f 4213 463f b51a 713f 5652 933f
00000010: 591c 553f 9e35 c13f f534 9a3f 8b0a 3d3f
1.2875229 0.77373135 0.94181377 1.1509502 0.8324638 1.5094488 1.2047411 0.7384421

base.4.bias f4 [8]
00000000: 48de 543d 4d7f 1fbf 4d83 cb3d 9699 b8bd
00000010: d5b3 793f c6cd 8abd 3324 333f 723a 213e
0.051969796 -0.6230362 0.09937153 -0.09013669 0.97540027 -0.067775294 0.6997711 0.15744951

base.4.running_mean f4 [8]
00000000: ee39 7cbf 49fc 71bf 6a63 d5be 3075 a2bf
00000010: 2021 5240 9c8b c2be b5cb b5bf 05c5 70bf
-0.98525894 -0.9452558 -0.4167741 -1.2692013 3.2832718 -0.37997139 -1.4202791 -0.9405063

base.4.running_var f4 [8]
00000000: dc51 f53e 9276 8a3f 8803 4c3f 1552 493f
00000010: a949 c83f 31f3 243f 559f 2e40 e61e e73e
0.47914016 1.0817435 0.7969289 0.7864087 1.5647479 0.6443358 2.7284749 0.4514076

module1.left.0.depth_conv.weight f4 [8, 1, 3, 3]
00000000: 5523 42be 7e4a 253e 0f20 d2bd 11e7 48bf
00000010: 8ed8 663f 74fa 2b3f 40d4 ddbe 5723 ba3d
00000020: 53fc 933e 03e9 f13d 0798 3b3d 228a b53d
00000030: 636e 143f 992c c03e 359f 743d 05e4 f23e
00000040: 8112 b33e 91e7 55be a252 a2be a45b 97be
00000050: da3a 2abc 16b2 a13e dbd5 703f de75 b6bc
00000060: f0ec c13e 53c7 9d3e ac11 8dbc a69a ed3a
00000070: 1048 92be 4279 303f 84ce 3ebf 7faa a7be
00000080: 250a f33e bf8b afbe 60d9 87be 4299 d63d
00000090: bfa7 0b3f 372c 883e d73f c7bd 0539 be3e
000000a0: 613e 6a3e 6653 ff3c d855 98be a50e 10bf
000000b0: 8479 4bbe 268f c13e c7d4 953f b16a 733d
000000c0: 4ed2 d03b f02e 11bf d571 8dbe 4da9 92be
000000d0: 829d 08bf 4602 58be 7aca de3e f9f3 4a3e
000000e0: f2e9 cc3c f5ff 1d3e c60d 68be 3331 12bf
000000f0: b4d6 9d3e 62b9 bdbd 803e 81be 30b6 1c3e
00000100: c61e 0b3d be49 8abe c26f f13e 2bd0 f93e
00000110: eb33 e93e 81b9 903e bcdf f83e b951 b53e
-0.1895879 0.16141698 -0.10260021 -0.7847758 0.90174186 0.67179036 -0.43325996 0.09088772
0.28903446 0.118120216 0.04579928 0.08864237 0.57980937 0.37534025 0.059722144 0.4743959
0.34975055 -0.20889117 -0.3170367 -0.29562104 -0.010390008 0.3158118 0.9407632 -0.022273
0.3787608 0.30816135 -0.01722034 0.0018127754 -0.28570604 0.68935025 -0.7453387 -0.32747266
0.47468677 -0.34286305 -0.2653303 0.1047845 0.54552835 0.26596233 -0.09728973 0.37152877
0.22875358 0.031167697 -0.29752994 -0.56272346 -0.19870573 0.37804526 1.170556 0.05942792
0.0063727265 -0.56712246 -0.2762591 -0.2864479 -0.5336534 -0.21094617 0.43513852 0.1981963
0.025013898 0.15429671 -0.22661504 -0.5710632 0.30827868 -0.092638746 -0.25242996 0.15303874
0.033964895 -0.27009386 0.47155577 0.48791632 0.45547423 0.28266528 0.48608196 0.35413912

module1.left.0.depth_conv.bias f4 [8]
00000000: 5b2e b73c 9763 9e3e ea84 9c3e 1234 6abd
00000010: b3a8 493f fd18 c7be 911e 04bf 6560 20bd
0.022360971 0.30935356 0.30570155 -0.057178564 0.7877304 -0.38886252 -0.5160914 -0.03915443

module1.left.0.point_conv.weight f4 [16, 8, 1, 1]
00000000: ef25 733e 8935 843e 5fda 453e fb60 9d3e
00000010: 647f 463f 32b6 7cbe cec9 4cbf 4978 633e
00000020: c978 123f f6e5 023e 98ed 0cbf b35b 013e
00000030: 5e74 05be c777 c03e a77a 85be ef23 1ebf
00000040: 981a eebe fbd2 b4be 171d 4f3e 3142 553f
00000050: d2bd 40be eda9 4b3e 68a5 dcbc e111 20bf
00000060: da97 5d3f eb24 853e 8b2b aebe 4a3e 22bf
00000070: 491d ba3e 5fa1 533e 53ae 603c 6d95 023e
00000080: 1fe9 fabe b97d 853d 4ded ce3e 8a87 1a3f
00000090: b6c2 9dbe 0d6f 14bf 4cb8 e9bd b775 dcbd
000000a0: 95a6 633f 750b 033f de00 773e 5045 c63d
000000b0: c782 a4be 782e 0cbe b23b 6dbe 2cd8 92be
000000c0: a36e 01bf bdf8 93be 6c54 143f e856 cb3c
000000d0: f456 b63e dc96 11bf ae6d cf3e f6d7 4e3e
000000e0: 27d7 cdbe 5a7a 1bbf 3f87 ee3e a8a5 6bbe
000000f0: 550c 113e b1dc 36bf 651a ecbc 5332 d9bb
00000100: a9ba 8d3d fa84 51bd 81f6 a63e 2bbc 00bf
00000110: 0466 9d3e 23d4 56bf f975 67be 41fd e03e
00000120: 429c b4be be25 15bf 698b db3e 5c1a 9e3e
00000130: c330 133f 685c a9be e757 4abd 75b5 863e
00000140: 84c4 43bd 3721 e2be 423e 463e d5fb 513f
00000150: d680 2b3f e350 bf3d 957e f8be 1104 8ebe
00000160: 73c5 c2be ad3f ddbd 8be0 053f 98ca f93e
00000170: fc57 a13e 887f cebe 2efe 0abf 7523 80be
00000180: d9e4 ab3e 9e68 bc3d ca6c aabe be39 213f
00000190: ccee 94bd 9dd7 093f e670 02bf 26a2 b4be
000001a0: 1674 163e 277c 9dbd bda5 60be 20f4 d8bc
000001b0: 142c 01be b944 883f a082 533e 49cf 0fbf
000001c0: 20e6 733e e271 c5bd 7739 1fbf 8b28 c63d
000001d0: 8adf 68be 6c31 2f3f 4dfa 32bd cc16 41bf
000001e0: 60db 8d3c 0804 493f 5c59 56bf baf7 7e3e
000001f0: f2c4 4fbe ff7d 1b3e bc46 12bd 9730 d4be
0.2374494 0.25822094 0.19321583 0.30738053 0.7753813 -0.24678877 -0.7999543 0.22213854
0.57215554 0.12783036 -0.5505004 0.12632637 -0.13032672 0.37591383 -0.2607014 -0.6177358
-0.46504664 -0.35317215 0.2022594 0.83304125 -0.1882241 0.1988904 -0.02693434 -0.6252728
0.8655983 0.2600473 -0.34017596 -0.63376296 0.36350468 0.20667027 0.013713437 0.12752314
-0.49005982 0.0651812 0.4041542 0.60363066 -0.30812615 -0.5798195 -0.11412105 -0.1076464
0.8892606 0.5118936 0.24121425 0.09681189 -0.32131025 -0.13689601 -0.23167303 -0.2868055
-0.50559443 -0.2890071 0.5794132 0.024821714 0.35613215 -0.5687082 0.40513366 0.2019957
-0.4020321 -0.6073357 0.4658756 -0.23012412 0.1416486 -0.714305 -0.02882118 -0.0066283136
0.06920368 -0.051152207 0.32609943 -0.5028712 0.30741894 -0.83917445 -0.22603597 0.43943217
-0.35275465 -0.58260715 0.428798 0.30879486 0.5749628 -0.33078313 -0.049400236 0.26310316
-0.047794834 -0.44165966 0.19359687 0.8202489 0.66993463 0.093416 -0.48534074 -0.27737477
-0.38041267 -0.10803161 0.5229575 0.4878738 0.3151244 -0.40331674 -0.542941 -0.25027052
0.33573034 0.09199642 -0.33286124 0.6297873 -0.072721094 0.53844625 -0.5095352 -0.3527996
0.14692721 -0.07689696 -0.21938224 -0.026483595 -0.1261447 1.0645972 0.20655298 -0.5617567
0.23818254 -0.09640862 -0.6219706 0.09675702 -0.22741523 0.68434787 -0.043695737 -0.7542541
0.01731652 0.78521776 -0.837301 0.24899188 -0.20289972 0.15184782 -0.03571199 -0.4144332

module1.left.0.point_conv.bias f4 [16]
00000000: 0408 853e ad57 ba3d 7b49 58be 3cc1 d3be
00000010: a2ec 613c be9d 8c3e ff9c ff3e 783d cc3e
00000020: 11f4 b9be add8 dd3e df8f c03e eb3f 1b3e
00000030: 6add 4cbf e3d1 abbe 7ab9 283d 208a 66be
0.25982678 0.09098754 -0.2112178 -0.41358364 0.013789328 0.27464098 0.49924466 0.39890647
-0.3631902 0.43329373 0.37609765 0.15161102 -0.8002535 -0.33558568 0.04119251 -0.22513628

module1.left.1.weight f4 [16]
00000000: 2333 8b3f c0e0 4c3f 8df9 933f 9ac6 983f
00000010: 510b 943f da59 713f 7d8a 833f 9d98 8f3f
00000020: a571 813f f060 743f f7f9 433f 7a61 5a3f
00000030: 9d03 723f 8730 983f c92f 633f c307 703f
1.0874981 0.8003044 1.1560532 1.1935608 1.1565953 0.9427773 1.0276638 1.1218449
1.0112807 0.95460415 0.7655329 0.8530499 0.94536763 1.1889809 0.8874479 0.93761843

module1.left.1.bias f4 [16]
00000000: 9b52 febe 4768 8b3f 9099 6e3e 39a4 173c
00000010: b756 b7bd acd0 31be 762f 723f 696b 8b3f
00000020: c322 5e3e 438a ec3e c59b 8f3e e13c 323f
00000030: c6c9 023f 6201 e73d c061 ed3e 8a14 c5bc
-0.49672398 1.0891198 0.23300767 0.009255462 -0.089520864 -0.17364758 0.9460367 1.0892154
0.21692948 0.46199235 0.2804853 0.69624144 0.5108913 0.112795606 0.4636364 -0.024057645

module1.left.1.running_mean f4 [16]
00000000: e643 0740 f769 52bf ba3a adbf fc04 783e
00000010: 0058 41ba 8fc6 113f f637 a23f 5f96 703f
00000020: 3464 a03f c17c aa3f ea84 4f3f 3faf 6d3f
00000030: b910 b7bf cb1a dcbf f8db cebf 7eb7 96bf
2.1135192 -0.8219294 -1.3533547 0.24220651 -0.0007375479 0.569436 1.2673328 0.9397945
1.253058 1.3319322 0.81062186 0.9284553 -1.4301978 -1.7195677 -1.6160879 -1.1774747

module1.left.1.running_var f4 [16]
00000000: 4469 2f3f 9b83 643f 82ff 5d3f a49d 763f
00000010: e566 393f 1e55 093f dfda 503f c95c 333f
00000020: 1e32 663f 2088 343f b420 213f d11c 3a3f
00000030: 39fd 293f ae71 913f 55c1 943f 0704 193f
0.6852 0.89263314 0.86718 0.9633429 0.7242263 0.53645504 0.8158397 0.70063454
0.8992022 0.7052021 0.62940526 0.7270022 0.6640201 1.1362817 1.16215 0.5977177

module1.left.3.depth_conv.weight f4 [16, 1, 3, 3]
00000000: c49d f5be 3ca8 02bf 934d 29be 6eb0 2ebe
00000010: f8c2 3abf bda4 42bf 92c0 613d f011 f6be
00000020: 25e8 b5be dc53 553f 66ca 2b3f f9f0 2b3f
00000030: f747 b6be 4b63 8cbd ebea 0dbe 3f26 45be
00000040: f728 3fbe 4cc7 2fbe 5746 ebbe 91c2 2abe
00000050: 4aa9 ccbd 6ed1 efbe 2d91 27bf 6cdb 5b3d
00000060: 5024 e3bd 742c 67bf 9c1b 7ebe 60cb ce3d
00000070: 2dfe 9e3e d2bc 853e 10cd c43e 5664 0b3f
00000080: f794 b33e e570 983e f8d9 103f 7a4f 183f
00000090: 5937 c0be 713b 23bf 268a bebe 1f4a 3ebe
000000a0: bf65 03bf 6d7d bebe 710a 4fbe 56d3 09bf
000000b0: 4da7 3dbe 42b7 823e 149b 9b3e f4bb 763d
000000c0: 2713 083f 9cc3 c43e 5ba3 e53e b163 c43e
000000d0: 6d01 953e a576 823d 46ab ce3e 8d6f abbd
000000e0: 9445 75be e463 e2be 1172 f83e 7ee4 413f
000000f0: fe90 07bf ba60 cfbd da00 003f af23 453e
00000100: 2dd2 453e ec39 e43e 2872 84be ada9 8cbf
00000110: 78da 34bd ab31 f43d afa7 3b3e 229a 413e
00000120: 89ce 133f 2b76 cd3e 8033 073e 59d8 ea3e
00000130: 6dda a83e 1def 5d3c cde0 823e 2358 d93e
00000140: 2589 da3e 7b8f 90be 2145 7ebe b935 17bf
00000150: 572a fabe 5934 a8be a87f a9be c1ef 8cbe
00000160: d623 7f3e 051b 873d bb1e 963e 23ed 273e
00000170: 1bae babe 74c4 f23e 7e42 0d3e d7a4 cfbe
00000180: d24a 98be 38c4 e0be 1a6d b8be 9f38 a8be
00000190: ae7d 4bbf 53b8 62be f372 193e d1b4 09bf
000001a0: 95cf b23e c5fc 833e 441d a93e 21d3 82be
000001b0: 8708 3e3b 81c5 d03d 113f 003f 97c2 b6bd
000001c0: 77b4 d0bd 7718 c33e 3a33 8dbe 8174 2abf
000001d0: 3906 10bf 5fda 23bd c3db fc3b fb32 b33e
000001e0: 95c1 1abe afb0 e1bd e4e0 3c3f 9ba8 153e
000001f0: c52a 393f ab36 a83e 87de e43e 69c7 ac3d
00000200: c400 103c 0887 033f 3c40 113f 2c81 333f
00000210: c5e1 a73d bbe4 7a3e 7231 da3e 9894 853e
00000220: 01d0 613e cf53 0d3f 073c 8a3e 3b82 8d3e
00000230: 8347 483e ac16 a83e ba54 793e ac9d 763e
-0.47971928 -0.51037955 -0.16533498 -0.1705949 -0.7295375 -0.7603262 0.05511529 -0.4806056
-0.35528675 0.83331084 0.6710571 0.6716457 -0.3560178 -0.06854876 -0.13859145 -0.19252871
-0.1866797 -0.1716587 -0.45952103 -0.16675784 -0.09993227 -0.4683947 -0.65455896 0.053676054
-0.110909104 -0.90302205 -0.2481522 0.100973845 0.31053296 0.2612062 0.384377 0.54449975
0.3507459 0.29773632 0.56582594 0.5949627 -0.37542227 -0.63762575 -0.37214774 -0.18582962
-0.5132713 -0.37205067 -0.20218827 -0.538381 -0.18520851 0.2553044 0.30391753 0.06023784
0.53154224 0.38430488 0.44851193 0.38357309 0.2910265 0.06370286 0.40365046 -0.08370886
-0.23952323 -0.44216835 0.48524526 0.75739276 -0.52955616 -0.10125871 0.500013 0.19251893
0.19318457 0.4457544 -0.25868344 -1.0989281 -0.04415366 0.11923536 0.18325685 0.18906453
0.5773702 0.40129218 0.1320324 0.45868185 0.32979146 0.013545779 0.25562134 0.42450055
0.42682758 -0.28234467 -0.24831058 -0.5906635 -0.48860428 -0.32852438 -0.33105206 -0.27526668
0.24916014 0.065969504 0.2932032 0.16399054 -0.36460957 0.47415507 0.13794896 -0.4055545
-0.29744583 -0.43899703 -0.36020738 -0.32855698 -0.79488647 -0.22140627 0.14985256 -0.5379153
0.34923998 0.25778785 0.3303014 -0.25551704 0.0028996782 0.10193921 0.5009623 -0.08923834
-0.10190671 0.38104603 -0.27578145 -0.6658402 -0.56259495 -0.040003177 0.0077166273 0.34999833
-0.15112908 -0.11020028 0.73780656 0.14615099 0.72330886 0.32854208 0.44701025 0.08436472
0.008789245 0.51377916 0.5673864 0.70118976 0.08197359 0.24501316 0.4261585 0.2608993
0.22052003 0.55206007 0.26998922 0.2763842 0.1955853 0.32829797 0.24348727 0.24083585

module1.left.3.depth_conv.bias f4 [16]
00000000: b316 a43e b0d3 93be 337a 07be b6d1 7b3d
00000010: a665 8ebd b9cf c6be 928a b63d 0448 b03e
00000020: 5e2e 363e b4cb 873d 4931 4dbe 7551 c7be
00000030: ad06 d7bd 8418 013e 4ee7 b2be 1594 6f3e
0.32048568 -0.28872442 -0.13230209 0.061479293 -0.06952982 -0.38830355 0.08913149 0.34429944
0.17791125 0.0663065 -0.20038332 -0.38929334 -0.1049932 0.12607008 -0.34942096 0.23396333

module1.left.3.point_conv.weight f4 [16, 16, 1, 1]
00000000: 59f0 0e3f d1c3 70bf baea 8f3e 9b7b 01be
00000010: 195b 5a3e de36 06bf 5005 c1bd c36a 83be
00000020: 97a6 123d 3e18 b6bd e1ff 84be 614b 09be
00000030: d380 7abf 7201 a73e e511 81bd 2054 283e
00000040: 2d13 013f 5ee8 3dbe a367 11be f5b4 8e3c
00000050: ee61 f0bc 65e4 c7be 711d 64bc 7e9b b23d
00000060: 69d6 47bf b334 e5bd 4e5d 3bbf 0fb1 8fbe
00000070: 18f1 28be c89c a3be 3de7 f3be 9acd 10bf
00000080: e6ce 07bf 948b d2be 62c9 143d a134 1c3f
00000090: 3781 7f3d c6e0 ba3d af1f b83e 6dbc 933e
000000a0: f53f 0abe 87e3 25bf 3661 9bbe c815 c93e
000000b0: dd3e 523e dfcc f5bd 1511 abbe bf6d cf3e
000000c0: c512 533e 857d 1a3f 41f5 8e3e 8f31 dbbe
000000d0: 11bd 883d 6f4a a23b c021 133f 3ec9 94bf
000000e0: 831a 58bd 8b22 1bbd 792e 79be 4b5d 1a3c
000000f0: 5b7d 06bf 564b c23e d348 0ebe 1b78 d43d
00000100: 2169 b03d f8f4 4fbc 2963 a3be c3cf 223f
00000110: 35aa 73bf ef5e 6fbd b40b 023d d143 d3bc
00000120: be91 71be ddea fb3e 781c bfbe 0e78 c83e
00000130: 89a6 75be 049f 24be e0c9 4fbe 46d2 3d3d
00000140: bc92 d2be 3b93 a53e f08e 81bf ed3c e63e
00000150: d247 cabe 6638 e53e 6cff c8be ef14 83bd
00000160: cb17 dcbe c88f ae3d 7486 c9bd f216 dabe
00000170: a162 9fbd 7e90 fd3c f8c6 cfbc 7ba6 66be
00000180: dc08 97be c444 8bbe ed84 77be 9008 293f
00000190: 3562 69be 3ac6 edbd dbe6 0ebf 948f e7bd
000001a0: 0c4b 473f 55ac 60be a50f 99bd b47e 883d
000001b0: 80ee 9b3e c61a 063e 3630 87be e4e3 fabe
000001c0: 3bcb 8e3e 0e31 10bf 843e 763e 3de6 8c3c
000001d0: f333 cc3d c640 94be 4e30 b4be a893 c7bd
000001e0: 900f da3d f409 973d 2063 163f db85 12bf
000001f0: b854 8f3e a6c6 983f b9d3 bc3d cf13 483c
00000200: 1900 463f 0bca 5ebe a2ee 6c3c 9212 65be
00000210: 6db0 133f b94e 673d 57c6 f73e 56c6 2dbe
00000220: f0b7 133f 3377 03be 0aea f8b8 8889 dcbe
00000230: 497a aa3e 56e5 10be bcb0 0bbf f6d6 093e
00000240: bf06 613e 9c9b 413e 7470 23bf eec4 6a3e
00000250: e0b0 e33e f7f4 033f a30d 2ebf d55c c73e
00000260: 67af f83d e092 b3bd d98e 0b3d d0d4 0a3f
00000270: b487 1bbf c24a dcbe 5fc6 12be 48ae 39be
00000280: 6cb5 a43e 0e2c 87bd e965 a43e 727f bb3e
00000290: de78 1cbf 9f74 f1be 6462 47bf 5f10 38bf
000002a0: f2ea 4fbe 15e7 d0be fcb1 f43d 4e83 98bd
000002b0: c33b 99bc dc50 873e 0262 95bd b68e cfbe
000002c0: 8293 803e e591 08be 0bf8 c0be 2b90 d1be
000002d0: 65bf 13bd f40c 183e 707f 00bf 0853 163f
000002e0: 20aa 6f3d 0297 f03e 66d2 68be 7368 bd3e
000002f0: 0ac4 f63d c670 5a3d 2763 883f cf3d ebbd
00000300: 94a0 af3e 2377 24bf cd13 253f 00b4 b5be
00000310: b903 86bd 22a8 60be 76cf c8be 870a 2fbe
00000320: 51d9 e93d f472 e1be b9c6 eabe 77d6 9abe
00000330: 35fa a1be ac1b 14be 5d5e f2be d16e 7cbe
00000340: 7d57 983e 7dbf 69bd fc61 a43b 4605 a5be
00000350: cb6d 28bd 5eb9 e4be fba9 8bbd 6c24 cabe
00000360: d0ea 5d3f 6742 1cbf bd27 5b3e e2bf 7b3e
00000370: 901d b7be 78ca cabe 641e cbbe 37c8 233e
00000380: 0995 cd3e cf36 41bf 89b1 4f3e 8c38 033f
00000390: 4014 3f3d 8698 a83d 5b71 3fbc 836e 993d
000003a0: f9a5 613e 4c6a 0b3f aa80 403e 4636 583f
000003b0: 2117 34be a117 e53d 0286 78be 1e18 01bf
000003c0: 3d0e 34be 6081 e7bd 2b15 fe3d 5a7d 153e
000003d0: 2c1d b0be 7957 373f 3ca2 853c 2a15 c5be
000003e0: 012e 3b3d 12f2 30be cc29 d93e f82a a73e
000003f0: 9a38 ae3d 59f0 d33e 20e8 d63e d2fe a63f
0.5583549 -0.9404879 0.2810877 -0.12644808 0.21323813 -0.5242747 -0.094248414 -0.2566739
0.035803404 -0.088913426 -0.2597647 -0.13407661 -0.9785282 0.3261829 -0.06302241 0.16438341
0.50419885 -0.18545672 -0.1419969 0.017420271 -0.029343572 -0.3904144 -0.013923035 0.08721064
-0.7806154 -0.11191692 -0.73189247 -0.28064772 -0.1649822 -0.31955552 -0.47637358 -0.56563723
-0.53050077 -0.41122115 0.036324866 0.61017805 0.06237909 0.091249034 0.35961673 0.28854695
-0.1350096 -0.64800304 -0.30347604 0.3927443 0.20531793 -0.12001967 -0.3341147 0.40513417
0.20612629 0.6034778 0.2792149 -0.42811248 0.066766866 0.004952721 0.57473373 -1.1623914
-0.05275966 -0.03787474 -0.24334134 0.009421657 -0.5253503 0.37948102 -0.13894968 0.10374471
0.08613802 -0.012692682 -0.3191159 0.6359827 -0.9518159 -0.058440145 0.031749442 -0.025789173
-0.23590752 0.49202624 -0.37326407 0.39154094 -0.2398931 -0.16076285 -0.20291853 0.04634311
-0.41127574 0.3233889 -1.0121746 0.44968358 -0.3950792 0.4476959 -0.3925737 -0.06400477
-0.42986903 0.08523518 -0.09840098 -0.4259563 -0.07782484 0.030952688 -0.02536343 -0.22524445
-0.29498947 -0.27200902 -0.24171801 0.6602869 -0.2279137 -0.11610074 -0.5582101 -0.11306682
0.7784889 -0.2194074 -0.07473687 0.06664792 0.304554 0.13096151 -0.2640397 -0.49001992
0.27889428 -0.5632485 0.24047285 0.01719963 0.09970846 -0.28955668 -0.35193104 -0.0974496
0.106474996 0.07374945 0.58745 -0.572355 0.27994323 1.1935623 0.092200704 0.012211754
0.773439 -0.21756761 0.014461191 -0.22370365 0.5769108 0.05647156 0.4839351 -0.1697019
0.5770254 -0.1283844 -0.00011869155 -0.43073678 0.3329642 -0.14149985 -0.5456655 0.13460907
0.2197523 0.18907017 -0.63843465 0.22926685 0.44470882 0.5154566 -0.6798956 0.38938013
0.1214283 -0.087682486 0.034071777 0.54230976 -0.6075394 -0.43025786 -0.14333485 -0.1813289
0.32169664 -0.066002 0.32109 0.3662067 -0.6112193 -0.47159287 -0.7788451 -0.7189998
-0.20304468 -0.40801302 0.1194801 -0.074469194 -0.018705254 0.26428878 -0.07294084 -0.40538567
0.2511254 -0.13336904 -0.37689242 -0.40930304 -0.0360712 0.14848691 -0.50194454 0.58720446
0.058511853 0.4699021 -0.2273651 0.3699375 0.1204911 0.053330205 1.0655259 -0.114863984
0.343022 -0.6424429 0.6448334 -0.35488892 -0.06543679 -0.21939138 -0.3922078 -0.1709386
0.11418403 -0.44033015 -0.45854738 -0.3024175 -0.31636205 -0.14463681 -0.47337618 -0.24651648
0.29754248 -0.057067383 0.0050165635 -0.32230586 -0.04112033 -0.44672674 -0.068195306 -0.39480913
0.8668642 -0.6103882 0.21401878 0.24584916 -0.35764742 -0.39607596 -0.39671624 0.15994345
0.40152767 -0.75474256 0.20282568 0.5125816 0.04665017 0.082322165 -0.011684741 0.074917816
0.2203597 0.5445907 0.18799081 0.84457815 -0.17586948 0.111861475 -0.2426987 -0.50427425
-0.17583556 -0.11303973 0.12406381 0.14598599 -0.34397256 0.7161785 0.016312711 -0.3849271
0.04569817 -0.17279842 0.424147 0.3264997 0.0850689 0.41394308 0.41973972 1.3046515

module1.left.3.point_conv.bias f4 [16]
00000000: c0cd 413e ec4c b63d d33f 52be 521b 10bf
00000010: 248b f4bd d2e4 a63e 39aa 76be ff52 0bbe
00000020: 15ad a53e 4ac8 83bd e668 3b3d 3aea edbe
00000030: d2a9 d2bd f020 18bf 3e07 26bd 1983 17bd
0.18926144 0.089013904 -0.2053216 -0.5629169 -0.119406015 0.3259645 -0.24088372 -0.13605879
0.32358614 -0.064346865 0.045754336 -0.46467763 -0.10286297 -0.5942526 -0.04053425 -0.03699026

module1.left.4.weight f4 [16]
00000000: 9d6c a93f 50b5 bf3f bc6d a63f 193c b03f
00000010: 8fb8 b43f 218e 8d3f 6052 a73f cd06 a03f
00000020: 2a30 c03f d0d8 a13f ecae a43f bd61 bb3f
00000030: b6c2 a73f 666d a53f 0fa5 b73f 4c4f 9e3f
1.3236271 1.4977207 1.3002238 1.376834 1.4118823 1.1058999 1.3072014 1.2502075
1.5014699 1.2644291 1.2865882 1.4639202 1.3106296 1.2924011 1.4347247 1.236795

module1.left.4.bias f4 [16]
00000000: 095a 5d3e c828 353d d79b 2abf 6f87 3cbd
00000010: eaff aabe 44eb 113e 91f2 2cbc 86d9 d93d
00000020: f024 9bbe 04a4 cabd a2e3 91bd ab79 0ebf
00000030: 6d84 b8be 3d57 a0be 1302 12be 9f12 5fbf
0.21616377 0.044228345 -0.6664404 -0.046027597 -0.33398372 0.14249903 -0.010555879 0.106371924
-0.3030162 -0.09894565 -0.07123496 -0.556544 -0.36038533 -0.31316558 -0.14258604 -0.8713779

module1.left.4.running_mean f4 [16]
00000000: 35f8 26bf 8f29 fabf dcd8 543f 0c58 c6be
00000010: a5bb 833f adc8 4a40 c985 ac3f 1778 833c
00000020: 2ae2 88be 37c7 9cbe 65b5 b9be 0182 52be
00000030: 8191 1bc0 1cd1 b7be d495 2ac0 8ee1 2740
-0.65222484 -1.9543933 0.831434 -0.3873905 1.029164 3.1684983 1.3478328 0.016048474
-0.2673505 -0.3062074 -0.36271206 -0.20557405 -2.4307559 -0.35901725 -2.6653948 2.6231418

module1.left.4.running_var f4 [16]
00000000: 43f4 8d40 75ab 7740 0f65 5e40 b85b 5640
00000010: bdbf 1b40 ba9f 9c40 3a68 9d40 67fe 4b40
00000020: 8c2c 5540 4885 0f40 a465 0740 6134 d340
00000030: 3635 a540 bb37 a240 a18b 7740 680d b840
4.436067 3.86984 3.4749181 3.349348 2.4335778 4.894498 4.918973 3.1874025
3.330844 2.2425098 2.1155787 6.600144 5.1627455 5.069303 3.8678973 5.7516365

module1.right.0.weight f4 [16, 8, 1, 1]
00000000: b272 d8bd 3999 1bbe d840 55bd d52b 813e
00000010: b558 37bf ae32 243f ca9a c23e e32b 3b3e
00000020: 4a6a 1dbe 6d76 223e a959 3a3e a1fb 50bb
00000030: cbcc b13e a3fc 243e 55d4 abbf 517b 25be
00000040: bd1e 673d d653 ad3e 337c 303e 8508 023d
00000050: 2a05 943f 442f 8ebe ef14 fb3d 1538 a43d
00000060: 4c5b 04bf fb9f 363f 556c 4b3e 8972 63bd
00000070: b2f3 e63e c4b8 4e3e 1a88 da3e c475 563e
00000080: 71c0 853d b45d b8bd 13d7 12be 60ab d3be
00000090: a6b1 52bf c8e8 8e3e 32fb 193f ef99 2b3e
000000a0: 513d 363e 6713 c43d 393f 8ebe 44d6 1e3e
000000b0: 1725 a3be 7286 89be 1d77 7d3f 1114 61be
000000c0: 9648 f7bd ad74 353f 4815 a43d 75ef 4cbd
000000d0: 1352 883e 3c2d 07bd 8cf3 473f df76 d73e
000000e0: 7f42 3fbe cb20 f93e 0be5 823e 1ac6 a53e
000000f0: 0ec3 c03d 4a91 90be e257 663f 3f66 293d
00000100: 1963 40be abb9 08bf 5e64 d03d 01c7 f2bd
00000110: 4a26 453c 222c 92be 5132 84bf f75a 6fbd
00000120: 81c2 b53e 8ab0 bc3e d464 22be 93b6 993e
00000130: 3347 9ebe dcfc 85bd 83dc 4b3f 8a59 fa3e
00000140: e69b cbbe 45d4 21be 1641 d5bd 6107 52bd
00000150: 9c1a b13e 7299 e73d aa52 79bf e9dc 0c3d
00000160: 5e38 383e 5725 bf3d 97b7 d5be 9384 d9be
00000170: dbae d03e 4009 91bd 438d fabe 3487 08bf
00000180: 59a8 13be 541f af3e 3d75 1c3e 79ce df3e
00000190: 1a7e 3abf b7fa db3b dde3 1e3e 71f0 3a3e
000001a0: fb7a 30bd 68ed 1f3e 9101 843e 656f c1bd
000001b0: 3326 1d3f f9fc 23bf c93e 1fbc 02b8 013f
000001c0: ab54 9fbc 9329 78be 9b0b 263e 05ab e03d
000001d0: 2e3d 78bf 132e dbbd a839 d13e 9a64 4d3e
000001e0: 450b 7a3d 4443 7a3e af55 943d 5729 0ebb
000001f0: 2b5d 09bf c7b0 f53d 1d05 8b3f 31d7 8f3d
-0.105687514 -0.15195169 -0.052063793 0.25228754 -0.7161973 0.6413983 0.3800872 0.1827846
-0.15372577 0.15865488 0.18198265 -0.0031888264 0.34726557 0.16111998 -1.3424174 -0.16160323
0.0564258 0.33853024 0.17234878 0.031746406 1.1564076 -0.27770436 0.12259852 0.08018509
-0.5170181 0.7133786 0.19865544 -0.05552915 0.451078 0.2018767 0.42681962 0.20943362
0.06530846 -0.090022475 -0.14339857 -0.41341686 -0.8230232 0.27911973 0.6014892 0.1675794
0.17796828 0.09574013 -0.2778261 0.15511423 -0.31864235 -0.26860386 0.9900988 -0.21980311
-0.120743915 0.7088116 0.080118716 -0.05003305 0.26625118 -0.033002123 0.78106 0.4208288
-0.1867771 0.48657832 0.2556537 0.32377702 0.09412204 -0.28235847 0.8997785 0.041357275
-0.18787803 -0.53408307 0.101753935 -0.11854363 0.012033055 -0.28549296 -1.0327855 -0.05843636
0.35499957 0.3685344 -0.15858775 0.30022106 -0.30913696 -0.0654237 0.7963335 0.48896438
-0.3976738 -0.1580363 -0.10412805 -0.05127657 0.34590614 0.11308564 -0.9739176 0.034390364
0.17990252 0.09333294 -0.4174163 -0.4248396 0.40758404 -0.070818424 -0.489359 -0.53331304
-0.14419688 0.3420359 0.15279098 0.43712214 -0.72848666 0.006713237 0.1551661 0.18255784
-0.043086033 0.15617907 0.25782445 -0.09445075 0.6138641 -0.6405788 -0.009719559 0.506714
-0.019449553 -0.2423461 0.16215365 0.109701194 -0.9696835 -0.10702147 0.408643 0.20057908
0.061045904 0.24439722 0.07242905 -0.002169212 -0.5365779 0.11996608 1.0860935 0.070234664

module1.right.0.bias f4 [16]
00000000: e976 e83d 709c 0fbe 13a2 f33d 976c 5ebd
00000010: 2646 e83d 7fce d93e fd21 d6be 8c0c b03e
00000020: 8338 ecbe b196 e4be bd92 343e 92ed 86be
00000030: 967b 703e 2f6d bdbe b154 aa3d ce24 8a3e
0.11350805 -0.1402452 0.118961476 -0.054302778 0.11341505 0.42540357 -0.41822806 0.34384573
-0.46136865 -0.44646218 0.17634101 -0.26353127 0.23484644 -0.36997363 0.08316935 0.26981205

module1.right.1.weight f4 [16]
00000000: 80d3 053f bafe 893f 6e53 813f 683b 113f
00000010: 246c 603f fb43 1d3f 819a 313f 6992 a33e
00000020: dd3f cf3e 5058 c63e 700f 6a3f a72a 1c3f
00000030: c712 9d3e 6e88 903e 3ac6 a73f 6a34 e13f
0.5227585 1.0780861 1.0103586 0.5673127 0.8766501 0.61431855 0.6937638 0.3194764
0.4047841 0.38739252 0.91429806 0.6100258 0.30678388 0.28229088 1.3107369 1.759412

module1.right.1.bias f4 [16]
00000000: a459 5d3e 2529 353d c99b 2abf 6288 3cbd
00000010: eaff aabe 5beb 113e 04f2 2cbc 48d9 d93d
00000020: ba24 9bbe 5ca4 cabd e3e3 91bd d979 0ebf
00000030: 4584 b8be 2157 a0be 7402 12be ce12 5fbf
0.21616226 0.04422869 -0.6664396 -0.046028502 -0.33398372 0.14249937 -0.010555748 0.10637146
-0.30301458 -0.0989463 -0.07123544 -0.55654675 -0.36038414 -0.31316474 -0.14258748 -0.8713807

module1.right.1.running_mean f4 [16]
00000000: 63f7 c93c f778 69bf fdc0 b73f 85ca 513f
00000010: 6d1f 4ebe d5a1 4b3f a56b 2d3f 101f a33f
00000020: 3778 ccbf c126 8d3e 169e fcbe ea05 2ebf
00000030: 7bdf 07be 89fd 673e 245b eabe f18e 4d3f
0.024654096 -0.912002 1.435577 0.81949645 -0.20129175 0.7954381 0.6774238 1.2743855
-1.5974187 0.2756863 -0.4933936 -0.67977774 -0.13268845 0.2265531 -0.4577266 0.80296236

module1.right.1.running_var f4 [16]
00000000: 229a 7a3f ee35 2640 f60a 223f 8427 a33e
00000010: 195b ac3f 9db9 cb3f d4de 343f f81b 793f
00000020: 6b7c ba3f bc9a be3f 1e9a d53f 4b2d 583f
00000030: fec6 203f f152 9f3e b151 9a3f 8975 1040
0.9789144 2.5970416 0.63297975 0.31866086 1.3465301 1.591602 0.7065251 0.973083
1.4569219 1.4890971 1.6687658 0.8444411 0.6280364 0.31117967 1.205618 2.2571738

module2.left.0.depth_conv.weight f4 [16, 1, 3, 3]
00000000: 9d14 b4be a803 dabd 2f48 86be 357a 12bf
00000010: aa49 f9be 9aa7 37bf ded3 ab3d 9574 a0bd
00000020: 4f09 4abe 24ef e3bd a5a5 17be d2ba 613e
00000030: f9a3 3abf a94c 05bf ddf6 843d cc1e a2be
00000040: 83ab 16bf be0b b5bc 124a bcbe df8e c9be
00000050: 3b77 31bf 8ba2 ef3d 162c 073f 3951 493d
00000060: fb00 7c3e 8435 b93e fb9b 313f 04aa a03d
00000070: 9be7 85be cb31 583d fa01 b9be 0068 a8be
00000080: cf24 c2be 9550 22bf 5865 f3be 14c1 91be
00000090: 0679 e2be 6b0f d8be eaec 9cbe 932c 043d
000000a0: fe6d 09be f5ff debd a005 0a3f 9b5e df3e
000000b0: c2fb f53e 6199 2a3d 5c19 87bd 7af0 0cbd
000000c0: db36 87be 52d8 26bf aa39 25bf 83dd 3ebe
000000d0: f892 c8be eab1 7fbe 057e 55bf 2396 02be
000000e0: 469f 463e 03c9 98bd 1a00 533f b85b ca3e
000000f0: b001 623d 1a5f b93d 12a4 f8be 0941 56be
00000100: cbac 32bf 7e5e b2be 8255 5ebd 06a1 34be
00000110: 3f7a 6d3c 5d97 b73e b94b 04bf 13d6 90be
00000120: c4b3 2abd e7f7 b7bd f964 003e fb55 2fbf
00000130: 423c 62bf b495 813e 332f 5abe 2d4e 03bf
00000140: 5d90 31be 8587 38be f765 363d c6c8 ac3e
00000150: c762 a7be 2892 1fbe eb67 27be e579 5fbe
00000160: 3b93 21bf 6173 2dbf cb72 4fbc b868 d6bd
00000170: 5c83 743e 6101 c13e ebbb 16be 0419 9ebc
00000180: 2e52 e53e a041 403f 87ee 943d dedf ef3d
00000190: 69b5 a33e 6b8c 5a3d 2400 26bf 725f 49be
000001a0: 8534 8fbe 930c 1abf 3c74 38bf a142 d5be
000001b0: 9411 afbe d359 89be 07fc 52be eebd 7d3e
000001c0: d43a 1c3f 064f 7e3e 3e96 3b3f aa7d da3e
000001d0: 70b8 f1bd 11be 85be 47b3 e8be 0578 2bbf
000001e0: 5baf 92be 3961 95be 003d 24bf bcc4 143f
000001f0: b365 0b3d 1ea9 85be 72c2 b73e 876c a33b
00000200: 54b4 42bd e914 fb3e 4670 09bb a2ad 02bf
00000210: d716 a43e 91a7 81be 3055 48bf de9d 7fbd
00000220: 9ec9 bfbe cef2 0abf 6c93 8dbe f666 843e
00000230: 7729 d83e 8aa8 e2be b47c 343f f9dd 633f
-0.35171977 -0.106452286 -0.26226947 -0.57217723 -0.48689014 -0.71740115 0.0839002 -0.07834736
-0.19730113 -0.11129597 -0.14809282 0.22043923 -0.7290645 -0.520701 0.06492398 -0.3166412
-0.58855456 -0.022100326 -0.3677526 -0.39366814 -0.69322556 0.117009245 0.52801645 0.049149726
0.24609749 0.36173642 0.6937863 0.07844928 -0.26153263 0.05278186 -0.3613432 -0.32891846
-0.37918708 -0.6340421 -0.47538257 -0.2846762 -0.4423296 -0.42199263 -0.306495 0.03226907
-0.13420865 -0.10888664 0.53914833 0.43626866 0.48043638 0.04165018 -0.06596634 -0.034409024
-0.2640904 -0.6517383 -0.64541113 -0.18639188 -0.39174628 -0.24970213 -0.83395416 -0.12752585
0.19396695 -0.07460215 0.8242203 0.395231 0.05517739 0.09051342 -0.48562676 -0.20923246
-0.6979491 -0.34837717 -0.054280765 -0.1763955 0.014494478 0.3585767 -0.51678044 -0.28288326
-0.041675344 -0.089828305 0.12538518 -0.6849057 -0.88373196 0.25309527 -0.21307068 -0.5129116
-0.17340226 -0.18020447 0.044530835 0.33746928 -0.3269255 -0.15583098 -0.16348235 -0.21823843
-0.6311528 -0.6775418 -0.012661646 -0.10469192 0.23878235 0.37696365 -0.14720123 -0.019299038
0.4478926 0.75100136 0.07272058 0.11712621 0.31974342 0.05335657 -0.64843965 -0.19665316
-0.27969757 -0.60175437 -0.7205236 -0.41652396 -0.341931 -0.26826343 -0.20603953 0.24779484
0.61027265 0.24834833 0.73276126 0.42674 -0.11802757 -0.26121572 -0.45449278 -0.6698001
-0.2864941 -0.29175738 -0.6415558 0.5811269 0.034032535 -0.2610559 0.35890538 0.0049873027
-0.047535256 0.4903939 -0.0020971461 -0.5104619 0.32048675 -0.25323156 -0.78254986 -0.062406413
-0.3745851 -0.5427674 -0.27651536 0.25859803 0.42219135 -0.4426921 0.7050278 0.8901058

module2.left.0.depth_conv.bias f4 [16]
00000000: 148f aabe a66d e93e 1f97 37be e0d6 03be
00000010: fa96 9b3e 0214 efbd aea7 dcbd b437 8a3e
00000020: b41b c8bd bdf1 a23e 46ed ddbe 9b83 a33e
00000030: 4b48 04bd 2f45 0d3e 077b 0dbc 60d7 09be
-0.33312285 0.45591468 -0.17928742 -0.12874937 0.30388623 -0.11673738 -0.1077417 0.26995623
-0.09770909 0.31825057 -0.43345088 0.31936345 -0.032295506 0.13795923 -0.008635289 -0.13461065

module2.left.0.point_conv.weight f4 [32, 16, 1, 1]
00000000: fc1e 4e3d a041 573f 84e6 503f 9417 95be
00000010: a177 363f 95bb 5ebe 1b6f 073f acc2 863e
00000020: 5431 a13c fc40 dd3d 4774 a23e 523f 9bbd
00000030: 1255 f6bd b241 0abe 6845 15bb 342c 5c3e
00000040: d7ee f5be c7ed b23d 4698 cb3c 025f 10bf
00000050: ff2a b8be e72d 1c3f e0cf 873d 2614 27bf
00000060: 984c eabd 8d82 bbbe cac8 6cbe 3e36 8dbe
00000070: 5f62 193d 5933 32be eafd 9d3e 80fa 283f
00000080: b46c a93e f690 b03d 9797 fdbd 3528 253f
00000090: c0bc aa3e 8901 343e f9ca 8bbe 6e77 9c3f
000000a0: 7483 bf3e f3c0 773c 2609 6bbe bf16 3a3e
000000b0: b134 c4be fa17 f63e 99a4 9d3e 6d02 71bd
000000c0: b864 4e3e 9f8b e1bd 0535 e53e da11 8abe
000000d0: 1a9e 4d3c cbc4 80be bd83 e23d f9bb ff3e
000000e0: db2f 18bf b5ed 0abf 2496 013d 1c61 69be
000000f0: 34b1 87be cdfe 573f b6f4 643d 125c 9fbe
00000100: ff84 59bd 8488 d3be 63eb 00bf fb92 0a3e
00000110: c598 04bf 13d6 863e 0acd 433e aa49 acbd
00000120: 6d1d cd3e d848 1c3f 4aef b5be 709b aabe
00000130: ad6c 12bf bdf4 303f a304 933e 74cd d83d
00000140: 8799 44bf d694 50be 3498 ab3e 31c7 1fbf
00000150: 217b ba3e 7cd0 953d f659 c1bd dcaa 293e
00000160: 69ee 3c3e 6456 6dbe e1a5 a03c e2b3 6dbe
00000170: c951 88be 9caa f4be 5b10 ebbe ae9b 053f
00000180: 91ef 3c3e a532 bebe 51e7 acbe 2ceb 473e
00000190: c885 9cbe 2fa5 323e 03d2 98be 34bd 00bd
000001a0: fe87 243f 3fcc 243f 0e64 c8be 4b93 653e
000001b0: c9f2 1fbf 7fb9 09be a32c aa3e 3fae 2abf
000001c0: 3e83 69be 644b fc3d 80d9 503f c9ff 293d
000001d0: 99cf 9abe 6c29 94bc 3894 b03e 4910 83be
000001e0: 99b6 3f3e 7730 8bbe 9022 0cbe 92d0 f2be
000001f0: 8e35 fb3c 9496 1bbf c087 d93e dd13 e13e
00000200: a288 20bf 61c7 25be 8a9f ee3d 7836 8a3d
00000210: 5a96 823e 238c 1c3f afc6 5f3e 7f49 93be
00000220: b9f4 78bd e1c7 84bd 0db7 f53d 6aac 33be
00000230: b0fd aa3c 0a8b c3be 2a5f 79bf cad5 54be
00000240: 38f1 9dbd 4769 e6bb 9cd8 883d f562 3bbf
00000250: 9dd5 52bf 24c7 8fbe ee35 28bf 6026 d4be
00000260: 56d7 623e 0172 9a3e 68a6 97be be81 76bd
00000270: 78a6 98be 341c 0e3f cd9c 7bbe b5b3 e6bd
00000280: 00ea bbbe b927 1d3e 1948 0c3f 67ee cfbe
00000290: 335d 8dbd 6a0e f1be e03c 663e 8ff6 a63e
000002a0: 72ce 67be 7216 d8be b6e9 853e 0019 a7be
000002b0: 030a a5bd ce06 90bd 9a15 823e 4c39 553f
000002c0: 7abc 15bf f434 0abe 37e9 a1be d5b3 13bf
000002d0: c704 a3be ec3f fa3e 00c8 563e 534c edbd
000002e0: 680e 4c3d 41aa a83e 9631 f9be 3765 4fbf
000002f0: eefa dcbd ee16 9bbe 217b 02be e636 763e
00000300: b6f7 11be 0cfb 163f 204e 0f3f a0c4 633e
00000310: 9a34 593e 7b38 f73d 9209 b2be 468f 51be
00000320: 121a 2d3e bbc9 393f 6f28 7a3e 1d88 dfbe
00000330: 0cb9 d2be f5bf d63e 6806 173f 3d15 b6be
00000340: 18ed 08bd 0dcc 8a3e c596 303f a903 79be
00000350: 51cf b63e 1f9f f73e 22c8 a33e d721 77bd
00000360: c6a3 9fbe 535f a03e fde5 05bc 1d5d ca3e
00000370: ee9f 803f b142 cabe be06 c4bd 3abb cd3e
00000380: f801 0ebf 3f93 173f bc39 0cbc 7799 8cbe
00000390: 06bf f73d 1558 bf3d b33b 1abf 0d5f 4dbd
000003a0: b0e4 003e 261e ef3e 7723 573e 8e4b 0ebf
000003b0: 7847 773d 2daf b0be ab84 8c3e 57ac 2bbf
000003c0: d045 ecbe 13d2 603e 3876 47be 06f9 9fbd
000003d0: 00d2 8b3e 4935 333f e716 c5be 7a82 d73e
000003e0: 142e 27bf e578 5bbe 231b 11bf 4384 a5be
000003f0: b4e1 6f3e 56c2 5cbe 3438 c13e 01a2 b5be
0.050322518 0.8408451 0.8160174 -0.2911955 0.7127629 -0.21751244 0.5290391 0.26320398
0.019676842 0.108034104 0.31729338 -0.07580437 -0.120279446 -0.13501623 -0.0022776965 0.21501237
-0.48033783 0.08736759 0.024852883 -0.5639497 -0.35970303 0.6100754 0.06631446 -0.6526512
-0.1144039 -0.3662304 -0.2312347 -0.27580446 0.03744733 -0.174024 0.30857784 0.6600723
0.33090746 0.08621399 -0.12382429 0.64514476 0.3334713 0.1757871 -0.27303293 1.2223947
0.37404978 0.015121686 -0.22952709 0.1817274 -0.3832145 0.48065168 0.3078964 -0.058840204
0.20155609 -0.11012959 0.44767013 -0.26966745 0.012549901 -0.2515014 0.11060283 0.499481
-0.5944802 -0.5426896 0.031637326 -0.2279095 -0.26502383 0.8437317 0.055897437 -0.31124932
-0.05310535 -0.4131509 -0.5035917 0.13532631 -0.5179561 0.263352 0.19121185 -0.08412488
0.40061513 0.6104865 -0.35534126 -0.33321714 -0.57197076 0.6912344 0.28714475 0.10586062
-0.76796764 -0.20369276 0.3351456 -0.62413317 0.36422065 0.07315156 -0.09440987 0.16569084
0.18450321 -0.23177487 0.019610347 -0.23213151 -0.26624897 -0.47786415 -0.45910916 0.52190673
0.18450762 -0.37148014 -0.3377023 0.19523305 -0.30570817 0.17445825 -0.29847726 -0.03143044
0.6427001 0.64374155 -0.39138836 0.22419469 -0.62479836 -0.13449667 0.3323718 -0.6667213
-0.22803971 0.12319067 0.8158188 0.0415037 -0.3023651 -0.018086158 0.34488082 -0.25598362
0.18721999 -0.27185413 -0.1368506 -0.47424752 0.030665185 -0.6077664 0.42486382 0.43960467
-0.62708485 -0.16189338 0.116515234 0.0674867 0.25505334 0.6115133 0.21853136 -0.2876701
-0.06078026 -0.064834364 0.11997805 -0.1754624 0.02087292 -0.38192016 -0.97410834 -0.20784679
-0.077120245 -0.007031593 0.0668194 -0.7319787 -0.823572 -0.2808162 -0.6570729 -0.41435528
0.22152457 0.30165103 -0.29619145 -0.060182326 -0.29814506 0.55511785 -0.24571534 -0.11264745
-0.36701965 0.15347184 0.5479751 -0.40611574 -0.06902542 -0.4708131 0.2248416 0.32609984
-0.22637346 -0.42204624 0.2615487 -0.3263626 -0.0805855 -0.07032548 0.25407106 0.83290553
-0.5849072 -0.13496763 -0.3162324 -0.57696277 -0.31839582 0.48876894 0.20974731 -0.11586823
0.049818426 0.32942393 -0.48670644 -0.81013817 -0.107900485 -0.3029093 -0.12742282 0.2404438
-0.1425465 0.5897682 0.55978584 0.22242975 0.21211472 0.1207132 -0.34772927 -0.2046481
0.16904476 0.7257344 0.24429487 -0.43658534 -0.41156805 0.41943327 0.5899415 -0.3556308
-0.033429235 0.27108803 0.68980056 -0.24317802 0.35705045 0.48363587 0.31988627 -0.060335007
-0.31179637 0.31322727 -0.008172509 0.39524165 1.0048807 -0.39504007 -0.095715985 0.40181905
-0.55471754 0.59209055 -0.008558687 -0.27460834 0.12096982 0.09342972 -0.60247344 -0.050139476
0.12587237 0.4670269 0.21009623 -0.5558404 0.060370892 -0.3450865 0.27444968 -0.67059845
-0.46147013 0.21955137 -0.1947869 -0.07811169 0.27308655 0.7000318 -0.38494036 0.42091733
-0.65304685 -0.21432836 -0.5668203 -0.3232747 0.23425943 -0.21558508 0.37738192 -0.35475162

module2.left.0.point_conv.bias f4 [32]
00000000: a9b6 c33d 68b1 33bd da2b a93e ed78 893d
00000010: 69f5 933e 718e 4f3e b82a bd3d 1dcf b53d
00000020: 7834 73be 94e7 813c 8ff4 b23c ee07 38be
00000030: ed1c 93bd b249 443e a0a3 853e 0cd3 063e
00000040: 059f f43c ebd4 45ba b1cb 363e b155 0b3c
00000050: 8817 7e3d 49c7 6fbe 1f09 1abe 7a3b cbbd
00000060: 0094 7b3e 7f98 d33e fc45 dcbc b373 343d
00000070: 9ad2 4b3e ca4b 94be 0ab4 20be e2c4 d93d
0.09556324 -0.04387036 0.3304127 0.06712518 0.2889817 0.20269181 0.092366636 0.08877394
-0.23750484 0.015857495 0.02184513 -0.17971775 -0.071832515 0.19168738 0.26101398 0.13166445
0.029860983 -0.0007546681 0.1785114 0.008504317 0.06203416 -0.23415865 -0.15042542 -0.09923454
0.24568176 0.41327283 -0.02688884 0.044055652 0.19904557 -0.28964072 -0.1569368 0.106332555

module2.left.1.weight f4 [32]
00000000: 2fb2 803f cd78 823f 42fb 7e3f 8412 823f
00000010: e652 923f 69f3 6c3f 156d 9a3f c279 813f
00000020: 8aa9 833f e94f 903f 3b2f 8c3f 0b23 8e3f
00000030: 42de 913f 4821 a43f 59cc 933f 2d55 973f
00000040: 9773 853f d5a2 7b3f f59b 963f 7519 6e3f
00000050: b68c 613f 0a15 833f 4fe1 8c3f 3034 473f
00000060: 0cbb 8c3f 1baa 913f 7929 ab3f 839b 9a3f
00000070: bd88 953f 8b47 8b3f 3869 833f 1978 8a3f
1.0054377 1.0193115 0.9960214 1.01619 1.1431549 0.92558914 1.2064539 1.0115283
1.0286114 1.1274387 1.0951914 1.1104444 1.1395953 1.2822657 1.1546737 1.1822869
1.04259 0.98295337 1.1766344 0.93007594 0.8810533 1.0240796 1.1006259 0.77814007
1.0994582 1.1380037 1.3372031 1.2078708 1.1682354 1.0881208 1.0266485 1.0817901

module2.left.1.bias f4 [32]
00000000: 7b4b 1abf 8a45 983c 1145 263f d5ff be3e
00000010: ccb2 e23e 816d 883e 9d0c 013e fb8b 103e
00000020: 69f7 0dbe 66d6 99be c87c 9b3e bcdf 953e
00000030: 0925 bb3e 1cc7 493e c013 b73d f1b8 423e
00000040: dc8c 2a3d 6951 283f 9707 883e 52f8 f13e
00000050: e7aa f8bd fc16 57be 5696 c03e cba8 3e3f
00000060: 3b19 abbe 2cc2 143d dafe 81bd 850a 91be
00000070: 82d2 e93e 8d2c 95ba 18ca a73e 0ee7 843e
-0.60271424 0.018587846 0.64949137 0.3730456 0.44277036 0.26646045 0.12602468 0.14115898
-0.1386391 -0.30046386 0.30368638 0.29272258 0.36551693 0.1970486 0.08939314 0.19015862
0.04163824 0.6574922 0.2656829 0.47259766 -0.12141972 -0.21004862 0.37614697 0.7447631
-0.33417687 0.03631799 -0.06347437 -0.28328338 0.45668417 -0.0011381075 0.32771373 0.2595753

module2.left.1.running_mean f4 [32]
00000000: 1537 c7be 8cc1 8540 f754 12c1 0cb1 923f
00000010: 7365 43c0 0a54 c740 ec47 80c0 fa00 b43f
00000020: 3a89 4140 aa0d 4440 53d9 8e40 da91 2240
00000030: 7ef6 2fc0 7f42 b1be 8513 3440 9aa7 ec3d
00000040: 7674 ccbc 07bc f440 cc02 e8be d49d 1dc0
00000050: 0d7f 7340 2c2e 8640 68c5 0ac0 6dd9 e440
00000060: 7876 99c0 6d5e 1a40 a548 bac0 7281 4dbf
00000070: 9a7d 52c0 41a3 cd3f a1b5 6e3c 9cee 2d3f
-0.38909212 4.1798763 -9.145743 1.146028 -3.053067 6.2290087 -4.0087795 1.4062798
3.0240006 3.063334 4.464029 2.540152 -2.7494197 -0.34621045 2.8136914 0.11555405
-0.024957877 7.6479526 -0.45314634 -2.462758 3.8046296 4.193136 -2.1682987 7.151541
-4.7957115 2.4120133 -5.8213677 -0.8027564 -3.288916 1.6065446 0.014569671 0.67942214

module2.left.1.running_var f4 [32]
00000000: 1ee1 b041 3cfd a041 7a8e f541 b1ed 6a41
00000010: c7d3 c141 bbeb ea41 92f9 fc41 7fb4 6441
00000020: 40fa 8f41 f9fd 7541 eccd b241 86f9 a741
00000030: 33c3 9741 951a 1442 7b86 ac41 4a4f b341
00000040: c055 9641 c879 ce41 b51e c941 dfec a041
00000050: dbfc 3a41 51e4 9941 1d0e bb41 f60f 4541
00000060: 5294 0142 61fe 9541 e8c1 2442 0189 8f41
00000070: 108d ef41 a435 0742 df96 2242 6a3d b041
22.10992 20.12365 30.694569 14.68303 24.228407 29.365103 31.62186 14.294066
17.997192 15.374505 22.350548 20.996838 18.970312 37.02596 21.565664 22.413715
18.79187 25.809464 25.139994 20.11566 11.686732 19.236483 23.381891 12.316397
32.394844 18.749208 41.18936 17.941896 29.943878 33.802383 40.647335 22.029987
